…
                        epochs=500, batch_size=20, callbacks=[checkpointer], verbose=1)

==>[0.772216094167609, 0.861244019138756]

######################################
# CNN from scratch

2 layers

model.add(Dense(512, activation='relu',
                kernel_initializer=init,
                bias_initializer='zeros'))
model.add(BatchNormalization())
model.add(Dropout(0.5))

##########################################
Transfer Learning

Layer (type)                 Output Shape              Param #
=================================================================
global_average_pooling2d_1 ( (None, 2048)              0
_________________________________________________________________
dropout_1 (Dropout)          (None, 2048)              0
_________________________________________________________________
dense_1 (Dense)              (None, 512)               1049088
_________________________________________________________________
batch_normalization_1 (Batch (None, 512)               2048
_________________________________________________________________
dropout_2 (Dropout)          (None, 512)               0
_________________________________________________________________
dense_2 (Dense)              (None, 512)               262656
_________________________________________________________________
batch_normalization_2 (Batch (None, 512)               2048
_________________________________________________________________
dropout_3 (Dropout)          (None, 512)               0
_________________________________________________________________
dense_3 (Dense)              (None, 133)               68229
=================================================================
Total params: 1,384,069
Trainable params: 1,382,021
Non-trainable params: 2,048
_________________________________________________________________
2018-02-12 21:24:26.955967: I tensorflow/core/platform/cpu_feature_guard.cc:137] Your CPU supports instructions that this TensorFlow binary was not compiled to use: SSE4.1 SSE4.2 AVX AVX2 FMA
…
